Number of GPU :  1
Model: "model"
_________________________________________________________________
Layer (type)                 Output Shape              Param #   
=================================================================
input_1 (InputLayer)         [(None, 598, 257, 2)]     0         
_________________________________________________________________
conv2d (Conv2D)              (None, 595, 254, 64)      2112      
_________________________________________________________________
batch_normalization (BatchNo (None, 595, 254, 64)      256       
_________________________________________________________________
conv2d_1 (Conv2D)            (None, 592, 251, 64)      65600     
_________________________________________________________________
batch_normalization_1 (Batch (None, 592, 251, 64)      256       
_________________________________________________________________
conv2d_2 (Conv2D)            (None, 589, 248, 128)     131200    
_________________________________________________________________
batch_normalization_2 (Batch (None, 589, 248, 128)     512       
_________________________________________________________________
max_pooling2d (MaxPooling2D) (None, 294, 248, 128)     0         
_________________________________________________________________
conv2d_3 (Conv2D)            (None, 291, 245, 128)     262272    
_________________________________________________________________
batch_normalization_3 (Batch (None, 291, 245, 128)     512       
_________________________________________________________________
max_pooling2d_1 (MaxPooling2 (None, 145, 245, 128)     0         
_________________________________________________________________
conv2d_4 (Conv2D)            (None, 142, 242, 128)     262272    
_________________________________________________________________
batch_normalization_4 (Batch (None, 142, 242, 128)     512       
_________________________________________________________________
max_pooling2d_2 (MaxPooling2 (None, 71, 242, 128)      0         
_________________________________________________________________
conv2d_5 (Conv2D)            (None, 68, 239, 256)      524544    
_________________________________________________________________
batch_normalization_5 (Batch (None, 68, 239, 256)      1024      
_________________________________________________________________
max_pooling2d_3 (MaxPooling2 (None, 34, 239, 256)      0         
_________________________________________________________________
conv2d_6 (Conv2D)            (None, 31, 236, 512)      2097664   
_________________________________________________________________
batch_normalization_6 (Batch (None, 31, 236, 512)      2048      
_________________________________________________________________
conv2d_7 (Conv2D)            (None, 14, 117, 512)      4194816   
_________________________________________________________________
batch_normalization_7 (Batch (None, 14, 117, 512)      2048      
_________________________________________________________________
conv2d_8 (Conv2D)            (None, 6, 57, 512)        4194816   
_________________________________________________________________
average_pooling2d (AveragePo (None, 1, 57, 512)        0         
_________________________________________________________________
re_lu (ReLU)                 (None, 1, 57, 512)        0         
_________________________________________________________________
batch_normalization_8 (Batch (None, 1, 57, 512)        2048      
_________________________________________________________________
flatten (Flatten)            (None, 29184)             0         
_________________________________________________________________
dense (Dense)                (None, 4096)              119541760 
_________________________________________________________________
dense_1 (Dense)              (None, 4096)              16781312  
=================================================================
Total params: 148,067,584
Trainable params: 148,062,976
Non-trainable params: 4,608
_________________________________________________________________
Loading IDs ............
Total  6040 train  IDs Loaded !! 
Total  train: 4832 valid: 604 test: 604  IDs Loaded !! 
Total 0 7 16 Correct in  4832  train IDs and  6040 Embeddings
Total 0 3 5 Correct in  604  valid IDs and  6040 Embeddings
…
